…
mdl.add(Conv2D(64,(3,3)))
mdl.add(Activation('relu'))
mdl.add(MaxPooling2D(pool_size = (2,2)))

mdl.add(Conv2D(64,(3,3)))
mdl.add(Activation('relu'))
mdl.add(MaxPooling2D(pool_size = (2,2)))

mdl.add(Flatten())
mdl.add(Dense(64))
mdl.add(Activation('relu'))

mdl.add(Dense(64))
mdl.add(Activation('relu'))

mdl.add(Dense(64))
mdl.add(Activation('softmax'))
mdl.summary()
Model: "sequential_2"
_________________________________________________________________
 Layer (type)                Output Shape              Param #   
=================================================================
 conv2d_3 (Conv2D)           (None, 26, 26, 64)        640       
                                                                 
 activation_6 (Activation)   (None, 26, 26, 64)        0         
                                                                 
 max_pooling2d_3 (MaxPooling  (None, 13, 13, 64)       0         
 2D)                                                             
                                                                 
 conv2d_4 (Conv2D)           (None, 11, 11, 64)        36928     
                                                                 
 activation_7 (Activation)   (None, 11, 11, 64)        0         
                                                                 
 max_pooling2d_4 (MaxPooling  (None, 5, 5, 64)         0         
 2D)                                                             
                                                                 
 conv2d_5 (Conv2D)           (None, 3, 3, 64)          36928     
                                                                 
 activation_8 (Activation)   (None, 3, 3, 64)          0         
                                                                 
 max_pooling2d_5 (MaxPooling  (None, 1, 1, 64)         0         
 2D)                                                             
                                                                 
 flatten_2 (Flatten)         (None, 64)                0         
                                                                 
 dense_5 (Dense)             (None, 64)                4160      
                                                                 
 activation_9 (Activation)   (None, 64)                0         
                                                                 
 dense_6 (Dense)             (None, 64)                4160      
                                                                 
 activation_10 (Activation)  (None, 64)                0         
                                                                 
 dense_7 (Dense)             (None, 64)                4160      
                                                                 
 activation_11 (Activation)  (None, 64)                0         
                                                                 
=================================================================
Total params: 86,976
Trainable params: 86,976
Non-trainable params: 0
_________________________________________________________________
Creating and Training the Model
model = tf.keras.models.Sequential([
    tf.keras.layers.Flatten(input_shape=(28,28)),
    tf.keras.layers.Dense(128,activation='relu'),
…
